nasdaq_lstm_model.pth (torch, 209156 bytes, 10 tensors)

lstm.weight_ih_l0 f4 [256, 4]
00000000: 6b96 2abd b502 4e3e 6ea7 a33d 1e0d 25be
00000010: 8ce1 78be 5b51 3ebe 0085 7abe bc51 37bf
00000020: 372e 253e 20a1 ba3d 569f fbbc 2cbb f3be
00000030: c4c5 d7bd 7d08 b7bd 2883 8ebe c33e 9bbe
00000040: a72a 7bbe 85cd 37be 329a 8dbe 0fdd b03e
00000050: ea7c 1dbf e8cf efbe 1ed1 edbe 1226 3fbe
00000060: 07eb 643e a1cd 9a3e 8ec6 1b3e a9ce 223d
00000070: 9ca9 66bf 61f2 78bf 720e 1ebf 8045 e9be
00000080: 202f 1b3f 64d3 f23e 9c70 e63e ceaa 80be
00000090: 22a1 56be f26f 77be 9f3b 55bd 5dfe 1dbf
000000a0: 02c4 d0be 878d f2be b3d3 a4be 6e91 2fbe
000000b0: 3353 67bf 3a61 62bf 48d0 0ebf 7708 1bbf
000000c0: 14c7 29bf aa34 ebbe 283b ccbe 1273 31bf
000000d0: 9061 6dbe 73bc f4bd db2f 45bd b1d5 a1be
000000e0: 8429 9cbd 426a 1bbe f827 37be 7b96 4a3e
000000f0: 9bd6 7bbf c0b6 61bf d460 a6be 4d2e b8be
00000100: 5589 07be ea4b 3fbd d1fa 64be 5fc2 babc
00000110: 1231 813e 1c1c 9f3e a36b 7b3e 194c df3d
00000120: 11cb 99be 1a67 46be 4d1e c3bd 6b1f 303e
00000130: 4e42 20bf bf6e d9be 1a85 e8be 6643 15bf
00000140: ba6f 84bf acbd 4abf d4be 10bf 7727 3bbf
00000150: 5605 1c3d 97de 5d3e ede6 133d b2d5 82bd
00000160: 9103 19bd 791f 0ebd b6cf 0abe ca74 30be
00000170: fe1b 2f3d a8bc fcbd d5e1 d63a 6402 87bd
00000180: d895 693e 84b1 9c3e 8bde 863e bc73 52bd
00000190: e965 c13d 1640 a13e 2862 f63d c6f1 91be
000001a0: 0b94 7c3e c99b 713e 7426 c23e 54eb 2ebe
000001b0: 67d3 7bbe a358 c4be ae3c 72be ab00 953e
000001c0: cd8d e73c 2065 44be 536a 23bd 8685 9cbe
000001d0: e161 8b3e 245d 0e3f b02c 0d3f fbbc 5ebc
000001e0: 42dc 9bbd 99c8 403d 7cdc 013e bde0 90bd
000001f0: 8c9c d3be 2e70 9ebe 4179 a0be 7dee 13be
00000200: 8b79 3bbe 67b9 bdbd 37e1 1fbe f940 9d3d
00000210: 93a6 dabe eb2d b7be d7ac 14be 6330 76be
00000220: 3825 cabe 4ef5 a3be 5f32 cfbe 28ad 00bd
00000230: d39b bbbe 308d bcbe 6296 7bbe 765a 80be
00000240: 8039 90be da07 cabe d828 a6be fd51 7dbe
00000250: c930 24bf 53b0 19bf 7b42 0cbf 8529 1ebe
00000260: 93dc 683d 9291 e63d d247 0e3e 9785 f2be
00000270: 0360 66be ef27 71bd 1556 503d ed8a 8dbe
00000280: d994 e93b 5941 c5bd bde1 ffbc 4cbf 29bf
00000290: d991 febe d092 acbe f02d d1be a9f5 71be
000002a0: d87c 9abe bbe1 85be aafd 7bbe b20d 79be
000002b0: 050a d4be e15d c1be 3e3f 2cbe 857d efbc
000002c0: 4a80 ccbe 152f acbe 41ed 9ebe cacc 0b3d
000002d0: 3bcd acbe c851 b5be d330 16be 40ef 81be
000002e0: 303e 883d cce7 fa3c dd1a c33d 81b9 1ebf
000002f0: 41bb 853e 945e bd3e 766c b53e 4ec7 b23c
00000300: a9da 893d 8c56 a03e ce49 703e b829 a43d
00000310: d227 c2be 2aa9 a1be e96e afbd f575 aabe
00000320: c903 6cbe dfb6 8fbe 2884 7dbe 5dd9 09bf
00000330: c368 2a3e 775f 833e 1198 233e 5a10 dbbd
00000340: 12e7 09bf 497b d8be 6fce 1cbe bc17 debd
00000350: 101a e33d 41a2 9abd 860d a43d dcff a5bc
00000360: 0842 4d3d 4e18 16bd 50df a4bd 3291 e83b
00000370: 7571 61bd 5ba2 e3bd be29 89be bb07 cf3d
00000380: 92c8 abbe 8900 0cbe 573b b2be 48a8 843d
00000390: 7afb 3b3e 20f6 e23d 1b37 133e c676 18be
000003a0: f3d8 823d 3686 e23c 4dd0 61bd c1b9 90bd
000003b0: 6729 123e 5fc2 583e 1fbd 793d 1654 eabd
000003c0: 5f78 883e 183a 7d3e 73a6 ba3d fd01 e13d
000003d0: 07e8 cd3c 0646 02bd 0f32 04be 2526 e53e
000003e0: 31c3 88be 850f bebe d30c b2bd 156e 4dbe
000003f0: 3eb1 04be 9c1f 94bd a98b 32be 34fa 2abe
-0.041647356 0.2011822 0.07990919 -0.16118285 -0.2430479 -0.18585722 -0.24464798 -0.7160909
0.16130911 0.091127634 -0.030715626 -0.47603738 -0.10535768 -0.08937166 -0.2783444 -0.3032132
-0.2452799 -0.17949493 -0.27656704 0.34543654 -0.6151873 -0.46838307 -0.46448606 -0.18666866
0.22355281 0.30235007 0.15212461 0.039747868 -0.90102553 -0.9724484 -0.6174079 -0.45560837
0.6061878 0.47426903 0.4500779 -0.25130314 -0.20959905 -0.24163797 -0.052058812 -0.6171625
-0.40774542 -0.47373602 -0.32192764 -0.17145321 -0.90361327 -0.88429606 -0.5578656 -0.6055979
-0.66319394 -0.45938617 -0.39888883 -0.6931621 -0.23181748 -0.11950006 -0.04814134 -0.31608346
-0.07625106 -0.15177253 -0.1788634 0.19783966 -0.98374337 -0.8816948 -0.3249575 -0.35972825
-0.13235982 -0.046703257 -0.22361304 -0.022797761 0.2523275 0.31076133 0.24552779 0.10903186
-0.3003774 -0.19375268 -0.09527264 0.17199485 -0.6260117 -0.42467305 -0.45414048 -0.58305967
-1.0346596 -0.79195666 -0.5654118 -0.73107094 0.038091026 0.21666943 0.0361089 -0.063884154
-0.037356917 -0.034697983 -0.13555798 -0.17232051 0.042751305 -0.12340671 0.0016394207 -0.06592253
0.22811067 0.30604184 0.26341662 -0.051379904 0.09443266 0.31494206 0.120304406 -0.2850477
0.24665849 0.23594584 0.37919962 -0.17081958 -0.24592362 -0.38348874 -0.2365596 0.29102072
0.028265858 -0.19179201 -0.03989632 -0.3057062 0.27223113 0.5561087 0.5514631 -0.013594861
-0.0761037 0.047066305 0.12681764 -0.070741154 -0.41330373 -0.3094496 -0.3134251 -0.14446445
-0.18308084 -0.09263878 -0.15613256 0.07678408 -0.4270521 -0.3577722 -0.14519058 -0.24041896
-0.3948152 -0.3202309 -0.40468118 -0.031415135 -0.36642322 -0.36826468 -0.24569085 -0.25069016
-0.2816887 -0.39459115 -0.32453036 -0.24738307 -0.6413694 -0.60034674 -0.5478894 -0.15445526
0.05685098 0.11258234 0.13894585 -0.47367546 -0.22497563 -0.058875974 0.050863344 -0.27645054
0.0071283397 -0.09631605 -0.03123557 -0.6630752 -0.49720648 -0.3370576 -0.4085536 -0.23628868
-0.30173373 -0.2614878 -0.24608484 -0.2432163 -0.41413894 -0.37766936 -0.16821 -0.029234657
-0.39941627 -0.3362967 -0.31040385 0.03413085 -0.33750328 -0.35413957 -0.14667062 -0.25377846
0.06652486 0.030628107 0.09526608 -0.62001806 0.26119426 0.3698622 0.35434312 0.021823552
0.06731159 0.3131603 0.23465654 0.0801577 -0.37921005 -0.31574374 -0.08566076 -0.3329312
-0.23048319 -0.28069207 -0.24757445 -0.53847295 0.16641526 0.2565877 0.15975977 -0.10696478
-0.5386821 -0.4228156 -0.15313123 -0.10844371 0.110889554 -0.07550479 0.08010392 -0.020263605
0.0501118 -0.036644273 -0.08050406 0.0070973868 -0.05503984 -0.11114951 -0.2678966 0.10108896
-0.3355146 -0.13672079 -0.34810898 0.064774096 0.1835765 0.11082101 0.1437649 -0.14889058
0.06389036 0.027651887 -0.05513029 -0.0706668 0.14273606 0.21167897 0.060971376 -0.11441819
0.26654336 0.24729192 0.09113779 0.10986707 0.025135053 -0.03180506 -0.12909721 0.44755664
-0.2671142 -0.37121215 -0.08693852 -0.20061524 -0.12958238 -0.072325915 -0.17436089 -0.16697007

lstm.weight_hh_l0 f4 [256, 64]
00000000: 5c59 e33e fbea 7fbe 1e16 60be 3c19 0bbd
00000010: 0cee f33d 9517 89be cb23 3d3e daab d7be
00000020: 782f 8e3d 7ce4 f6be 9a78 923e 47ba 6d3e
00000030: 6465 ff3e 120d d43d 3144 f83d 2f50 32be
00000040: 4732 72bd c393 fb3c c524 70be 3909 db3e
00000050: a8cc b13e 18a7 c8be d6d8 08be 116d db3c
00000060: 9c49 09be 31f0 25bf bb40 febd e796 70be
00000070: 4e0c 86be 0a29 c5bc ddff 823d 28c4 e73c
00000080: 9700 9bbe f62c 23be 3c6c 143e 3849 423e
00000090: 2588 433e 6761 1dbe cd89 fc3d c601 f93d
000000a0: e3fb 3dbe 3573 aa3e cb57 ae3c 5fef 92be
000000b0: 2fd7 f3bd b974 863e 430b 8c3e 9af0 0abf
000000c0: c782 173e 5cb2 8cbe 4a4f 2abe 7ff4 ecbe
000000d0: 7b56 8dbe 6490 ae3d 00c1 b9bd 204a c43d
000000e0: 24ca 1d3e b435 a6be e619 2bbd 9487 08be
000000f0: fb0d 303e 8ee6 3ebe 319d d33d d4d2 af3d
00000100: 212a adbc d4b8 72be 60e9 80bb 8e4c b3bd
00000110: 6307 b73d 6949 64be 7a88 56be 074e 91be
00000120: bd6e 48be 86b6 07be 1fe3 883e eef9 ce3e
00000130: 2bbd 313e 7155 483e d735 cd3e 2397 513e
00000140: e9a3 863e 41d2 78be 34c2 ccbd 1026 1b3e
00000150: f141 733e 5c9e 893d 6b72 3e3c 095a 4abe
00000160: ddee a0be abf1 d63c a6e5 56bd 8400 8cbe
00000170: 3de2 13be c59e 923a 3044 8dbe 2b14 3cbe
00000180: 647d 303e 4add 4c3c 6a1a cc3e 53ac 87be
00000190: 99d7 633e dc0f 72be c9f0 c13d c60c aa3e
000001a0: c318 2bbe 710f 713e cbb0 f13d 6eeb 53be
000001b0: f35e ce3c 969a 8b3d 15b7 c43d 5fc7 24be
000001c0: 411e 31be 48d9 2ebe b92b 0bbe 1e0b 483c
000001d0: d458 e03c 4d6f 533e 27d7 7cbe d2e5 8bbd
000001e0: 6dbc 7d3d 7a1e cf3d 5e5c fdbb c577 0d3d
000001f0: e6cb c63d 7149 ecbd 4b47 53bd 088a 123e
00000200: 39f2 b03d 7f9a 103d 23a3 c9bd 2890 05be
00000210: 56c0 953d 73d2 003d 314a f13b c9ea 32bb
00000220: 02cf f03c 41e7 85be cb0e f63d b112 7b3c
00000230: 98e9 cdbd 6979 94bd f059 b13d 7e59 e13d
00000240: cd01 393e 2052 003e 890e 923d 1a7b 1d3e
00000250: a363 38bd a22b 4cbd b649 d8bd 3cb8 81be
00000260: be3f 8e3e 6935 1bbd 3937 9c3e c74c 273d
00000270: 8f37 5b3c 5df2 0e3b c422 02be 229d aebc
00000280: a71d 8d3d 7acf f23d e35e 863d a2ee bbbd
00000290: 8a67 b03d 2e1f 7fbe bcac 44bd d566 34be
000002a0: 9aab 37be 8a09 533e 713c 653e 9e11 98bc
000002b0: fb74 4a3e 73e9 73bc 82d5 103e 5e01 2bbd
000002c0: f730 453e af0c 113d 5cc3 6ebe 79b3 fcbc
000002d0: 2a9b 03bc f94c 603e bb94 103e 74ac 993d
000002e0: a771 a43d 5e81 623a aa24 1fbe 9aa3 0cbe
000002f0: 5126 d7bd 5bdc c3bd 4c38 323d 0945 ec3d
00000300: e4ab 24be e48c 85bd 034f 24be 8431 4ebd
00000310: c673 993d bbc6 7dbd 1997 a6bc 334b 02be
00000320: 6905 f9bd 41f1 b1be c045 e23d eccb 293e
00000330: 906a 523e 5be3 7b3e 3e77 ff3d 2f13 533e
00000340: bf5e 8c3e 3c69 f93b d88c f6bb bbec 483e
00000350: d495 933e f0e8 b63e 1c07 eabc cb92 0cbd
00000360: 4c89 893e bdce 9f3e cfeb 493e 8c7e 39be
00000370: dd92 2ebc b86d e93d 4e6e b2be ec95 21be
00000380: 7dfc 433e fa72 98bc 1738 7d3e b027 79be
00000390: 066e fe3d 3075 b1bd cb2f 283d 5507 a1be
000003a0: 2fbc 5bbd 1f3a 8d3e ab26 483e a709 c1bd
000003b0: c7c9 083d 0d8f 0c3c c216 22be b636 7a3d
000003c0: d0f1 623e 2979 1bbe 3761 35be 94e7 b13d
000003d0: 0841 b93d af68 7a3e 4c2c 17be 214c 0abe
000003e0: 3f4b 8a3e cc81 403e d5ff 423c b3ca ccbd
000003f0: 656a 57bd 920e aa3d bba4 09be af6d bf3d
0.44404113 -0.24991982 -0.21883437 -0.033959612 0.11910638 -0.26775804 0.18470685 -0.421233
0.06942648 -0.48221195 0.28607637 0.2321559 0.49882042 0.103540555 0.121223815 -0.174134
-0.05912998 0.030710107 -0.23451526 0.42780474 0.34726453 -0.39189982 -0.13363966 0.026785405
-0.13406986 -0.6481963 -0.1241469 -0.23495065 -0.26181263 -0.02406742 0.06396458 0.028291777
-0.30273888 -0.1593512 0.14494413 0.18973243 0.19094904 -0.15369187 0.12330971 0.121585414
-0.18553118 0.3329102 0.021282097 -0.2869825 -0.119062774 0.26260927 0.27352342 -0.5427338
0.14795981 -0.27479827 -0.16631809 -0.46280286 -0.27605042 0.08523634 -0.09070015 0.09584451
0.15409142 -0.32462847 -0.041772746 -0.13332969 0.17192833 -0.18642637 0.10332716 0.08585134
-0.021138253 -0.23703319 -0.0039340705 -0.08754836 0.08936956 -0.22293629 -0.20950499 -0.28379843
-0.19573493 -0.13253221 0.2673578 0.40425056 0.17357318 0.19563843 0.4008014 0.2046781
0.2629693 -0.24298956 -0.09997979 0.15151238 0.23755623 0.06719658 0.011623959 -0.19760908
-0.31432238 0.026238283 -0.052465104 -0.27344143 -0.14441772 0.0011186233 -0.27591085 -0.18367068
0.17235333 0.012503931 0.39863902 -0.2649866 0.22250213 -0.23638862 0.09469754 0.3321287
-0.16708665 0.23541047 0.11801299 -0.20695278 0.02519176 0.06816594 0.096052326 -0.16091679
-0.17296697 -0.17075074 -0.13590898 0.012209682 0.027386107 0.20647927 -0.24691449 -0.06830944
0.061947275 0.10113235 -0.0077319583 0.03453805 0.09706859 -0.11537445 -0.051581662 0.14310467
0.0863995 0.03530359 -0.09845569 -0.13043272 0.07312076 0.0314507 0.0073635806 -0.0027300587
0.029395584 -0.26152995 0.1201454 0.015324281 -0.1005432 -0.0724972 0.08659732 0.110033974
0.18067093 0.12531328 0.071316786 0.15378991 -0.045016896 -0.0498463 -0.10560934 -0.25335872
0.27783006 -0.037892733 0.30510882 0.040844705 0.013379945 0.002181194 -0.12708575 -0.021315161
0.06890421 0.11855979 0.06561067 -0.09176375 0.086134985 -0.24914238 -0.048016295 -0.17617352
-0.17936555 0.20609108 0.22386338 -0.018563088 0.19771187 -0.014887202 0.14143947 -0.04174935
0.1925696 0.035412487 -0.23316711 -0.030847298 -0.008032599 0.21904363 0.14119236 0.07503596
0.0802949 0.0008640493 -0.1554133 -0.13734284 -0.10505355 -0.09563514 0.04351072 0.11536605
-0.16081196 -0.065210134 -0.16045766 -0.05034019 0.07492785 -0.061957102 -0.02033572 -0.12723999
-0.12159235 -0.34754375 0.1104846 0.16581696 0.20548463 0.24598448 0.124739155 0.20612787
0.27416036 0.007611422 -0.007524114 0.19621556 0.28825247 0.35724592 -0.028567843 -0.03431968
0.26862562 0.31212416 0.1971886 -0.1811468 -0.010655132 0.1139788 -0.3484978 -0.15779847
0.19139285 -0.018609513 0.24728428 -0.24331546 0.12423329 -0.0866493 0.041061204 -0.31450906
-0.053646263 0.27583405 0.19546 -0.09425669 0.033395555 0.008579028 -0.15828994 0.061087333
0.22162557 -0.15182938 -0.17712866 0.08686748 0.09045607 0.24453996 -0.14762992 -0.13505603
0.27010533 0.18799514 0.011901815 -0.09999599 -0.0525917 0.0830356 -0.13441746 0.09347092

lstm.bias_ih_l0 f4 [256]
00000000: c0f2 973e 8205 b93d 4ffd 87bd 44f0 113e
00000010: 3702 aa3e 40ab e33e 2c8b be3d c2d8 5f3e
00000020: 73e7 c3bd 27ba 3c3c d3bf 843e 5613 703e
00000030: 888b ad3e 562b 983d ec91 e13e 2923 8d3d
00000040: 3052 b13d 7c77 84bd e964 b53e b887 183e
00000050: e1a7 943e ee90 923d ca4d 133e bcd1 703c
00000060: c843 2e3e 4d17 a93e 9929 c8bb 6694 b53e
00000070: 0179 89bd acd1 9d3d 6c70 293e a0e4 16be
00000080: 59d0 c33e 1e20 0cbe 2e34 843e 0784 c8bd
00000090: 122f 763e cd41 a53e ffef 6b3e 396d 133d
000000a0: 9215 913d fb9e 963e c5ad b6be bd09 603e
000000b0: fc19 3a3e 4e16 4a3e f10e 393e a049 163e
000000c0: 00ec 833b b585 863e de31 babd 5069 c33e
000000d0: 3f55 04bd ea10 23be 05a2 893e 5b9d f83d
000000e0: 9132 9c3e cd04 3f3e 0127 1f3e f1c7 54be
000000f0: 1ed9 963d 77e8 7b3e bb7e 20be d25c 0f3e
00000100: 0cdb 40be e2d9 0bbd 2d6e 77bd 1b47 9a3d
00000110: eb1f fe3b 7fba 38be 338c 973e 1696 94bd
00000120: 03c5 48be 1d15 94be c84e e73c c821 3b3d
00000130: d15f 773b de8e ba3d 650a 58bd 9c52 28be
00000140: eecf 903d 9d7c aebd 53b0 63be cca3 a9bd
00000150: 0068 a9bd 3ad8 1f3e cbc6 8c3d 80a6 f6bc
00000160: dfc2 2f3e 91f2 b6bd 5358 a6bd 463b ddbd
00000170: 591c 40be 0327 003b 8460 d23c 70ec 0dbe
00000180: 7d88 823d 1a0c 71be 4e82 043e b6ef 383d
00000190: a290 fdbc 14d7 39be 1590 1e3d 0a33 083e
000001a0: 8dfa 43be e55a d6bb feef a9be 5fcb 82bc
000001b0: 8cd5 bdbd 579f 873d dd83 debd 0f8a 363d
000001c0: a7c8 da3c cf5c 8dbd bc8c 75be f409 653d
000001d0: 7230 f4bd 8fd8 73bc 328f 2d3e d0f7 b2bd
000001e0: 65bf 6f3d d7cc b73c ca0e 193d 6164 4dbd
000001f0: 03b3 a33d 29fd 853d 1603 93be 5983 533b
00000200: 4575 d9bc a0c4 07be 736d 21bc 0f79 04be
00000210: e5db 843d 46f0 4fbd f167 31bc 6614 31be
00000220: 94ca 19be 9683 e5bd c589 253e ec93 dd3d
00000230: 79fa 863d e1bd 9c3d ae84 363c 5c94 c23c
00000240: 305d 003d 871e e53d b51d 38be 7f61 fb3d
00000250: 539f f13d 508f f73d 4fb6 8dbd 7e15 1b3e
00000260: 3cc7 913d bb2b 21be 4e8f e03d 72e1 39be
00000270: 32d2 dd3c f19a d43d a3bf 86bc 427d bd3d
00000280: fa34 8fbd dff5 d73d d2cf 303d 1c4c 0d3e
00000290: ff43 8c3d 74ac f4bd 4d07 a33d ca79 e5ba
000002a0: 187f fcbd f71e 363e cac5 a6bd 012c babd
000002b0: 79d8 f83d 4664 15bc 7460 2b3d ff48 64be
000002c0: e64d f5bc a96f e3bd ec60 d7bd 51c8 cfbd
000002d0: 8986 913d f84c 3bbe 8fc4 7e3d d781 26be
000002e0: 0d13 3c3d efed 09be 1af2 53bd f0b5 9a3c
000002f0: 8467 343e a0a8 473c 6047 583d a342 253e
00000300: 557d a33e 7b5a 51bc 016d 88bd 01d6 023e
00000310: e190 523e c251 ea3e 217a 863d 7a2b c63d
00000320: 4538 e7bc a820 ffbd 9a2a 913e babc 5d3e
00000330: 6381 5d3e 5550 043e 8825 b63e d922 2ebe
00000340: 37b3 563e 9488 8abe ddbe 4e3e d20c 373e
00000350: da23 843e 09bd 793e da20 263e 742b ca3c
00000360: f4b5 563d be6d 743e e0cd 88bd 2d67 e33e
00000370: 1064 b6bd a8d8 aa3d dd9e 92bd 8e0e 67be
00000380: 3a4d a13e 9e52 a0be f427 013e 1322 3bbc
00000390: 7bfd 943e 2e68 d73e a96f 1e3e 0d21 233e
000003a0: 2535 99bc 8461 d13e a224 80be 259e b93e
000003b0: ef9b 85bd 86be 863e 4a14 563e e8d7 c23e
000003c0: 6c4b 59bd b2c9 993e 9b63 84be 3e32 be3e
000003d0: 0426 1b3d 265c 93bc 9a9f 613e 9964 563e
000003e0: 73e7 973e 139c 473e cef7 003e 3983 75be
000003f0: 977f ac3d c9b3 19bd cc45 d5bd 7972 8e3e
0.2967739 0.09034254 -0.06640112 0.1425181 0.33204815 0.4446659 0.09303889 0.2186003
-0.0956563 0.011518992 0.259276 0.23444876 0.33895516 0.07430141 0.44056642 0.06891472
0.08658254 -0.06468102 0.3542855 0.14895523 0.2903433 0.071565494 0.14385143 0.014698442
0.17018044 0.3302559 -0.0061084745 0.35464782 -0.06712533 0.07706007 0.16546792 -0.14735651
0.38244894 -0.13684127 0.2582106 -0.09790807 0.24041393 0.32276765 0.2304077 0.035992835
0.07084192 0.29418167 -0.3567945 0.21878715 0.18173975 0.19735071 0.18072106 0.14676523
0.004025936 0.26273885 -0.09091543 0.38166285 -0.03230786 -0.15924421 0.26881424 0.12139388
0.3050733 0.18654175 0.15542223 -0.20779397 0.073656306 0.24600397 -0.15673344 0.14000252
-0.1883356 -0.034143336 -0.060407806 0.075330935 0.0077552698 -0.18039893 0.2959915 -0.07255189
-0.19606404 -0.28922358 0.028235808 0.045686513 0.003774632 0.09109281 -0.052744288 -0.16437763
0.070709094 -0.08519862 -0.22235231 -0.08283195 -0.082717896 0.15609828 0.06873854 -0.03010869
0.17164181 -0.089329846 -0.08122315 -0.10802321 -0.18760814 0.0019554503 0.025680788 -0.13859725
0.06373689 -0.23539773 0.12940332 0.04515048 -0.030952755 -0.18148452 0.038711626 0.1330072
-0.19138546 -0.006541597 -0.33190912 -0.015966116 -0.092692465 0.066221885 -0.10864995 0.044565257
0.026707007 -0.069024675 -0.23979467 0.055917695 -0.11923303 -0.014883175 0.16949156 -0.08738673
0.058532137 0.022436542 0.03736762 -0.050144557 0.07993128 0.06542427 -0.28713292 0.0032274334
-0.026545176 -0.132586 -0.009852755 -0.12936805 0.06487254 -0.050766252 -0.010828004 -0.17292938
-0.15018684 -0.11206739 0.16165836 0.108192295 0.065907426 0.07653404 0.011140032 0.023752384
0.03133887 0.11187463 -0.17980082 0.12274455 0.11797967 0.120878816 -0.06919538 0.15144917
0.07118079 -0.15739338 0.10964833 -0.18152407 0.027077768 0.10381115 -0.016448801 0.09252407
-0.06992526 0.10544943 0.043166943 0.13798565 0.06848907 -0.11946955 0.07960377 -0.001750761
-0.12328929 0.1778525 -0.08143194 -0.09090424 0.12150664 -0.009118145 0.04184003 -0.22293471
-0.029944371 -0.11105282 -0.10516533 -0.10145629 0.07105739 -0.1829108 0.06219917 -0.16260467
0.045916606 -0.1346967 -0.051744558 0.018885583 0.17617613 0.012186199 0.052802444 0.16138701
0.31931558 -0.01277792 -0.06661416 0.12776949 0.2056308 0.457655 0.06566263 0.09676261
-0.028225074 -0.124574006 0.28352815 0.21654025 0.21631388 0.12921269 0.3557551 -0.17005481
0.20966803 -0.27057326 0.20189996 0.17875984 0.25808603 0.24388517 0.1622347 0.024678923
0.052419618 0.23869988 -0.066798925 0.44414654 -0.08905804 0.08342105 -0.07159207 -0.22564146
0.31504232 -0.31313032 0.12612897 -0.011421698 0.2909964 0.4207167 0.15472282 0.15930577
-0.0187021 0.4089471 -0.2502795 0.36253467 -0.065238826 0.26317233 0.20906177 0.38055348
-0.053050444 0.30036694 -0.25857243 0.37147707 0.03787805 -0.017988276 0.2203354 0.20936812
0.2966877 0.19493131 0.1259453 -0.23975839 0.08422773 -0.037524972 -0.10413703 0.2782171

lstm.bias_hh_l0 f4 [256]
00000000: 1ca2 2a3e 9328 a0bc c8f6 42bc b22d d63c
00000010: 4d75 9c3e e60c d33e 5362 1b3e b8c5 9c3e
00000020: c14f 973d 5333 c4bd c5e0 213e 3846 923e
00000030: 404f 0e3e 83c3 31bd d4a3 e63e d333 4a3d
00000040: 264e 8e3e 8847 30bd b768 803e 0e69 233e
00000050: 8763 cb3d e03b a03e 70d3 223e 119c 00bc
00000060: ef58 453e 9395 883e 1233 4e3d 9609 993e
00000070: 4879 8f3b 5df9 093e f9f3 2f3e 8adb 22be
00000080: 0fe3 a03e 51cd 90bd 0a5a 4d3e 520d 30be
00000090: 4d7e 9f3e 07c7 bb3e af6b 643d 3ccd d8bc
000000a0: d6b2 1b3e b6cb 833e c9d8 cbbe 255e 973e
000000b0: 9641 a03d 5e21 803e 8705 023e 3c56 5d3e
000000c0: e3c1 1dbc 9b64 123e 66e3 17be 8d80 2d3e
000000d0: 29b3 aa3c 85f1 e3bb e4b6 3c3e 4540 473e
000000e0: c924 a33e c412 c83e dd44 433e 27b0 52be
000000f0: 5645 9c3e cb90 673e 1781 e6bd f640 a73e
00000100: c6bb 7abe 3207 093d 62a6 15be 1fcd 6bbd
00000110: d302 91bc ab2e acbd 4196 133e 113b 65bd
00000120: 3088 ec3c 8109 66be de01 53bd 8c4f 0f3d
00000130: 15fb 883d 361d 70bd 3914 a43d 1e55 fdbd
00000140: 07ac 633e d955 e43c ed08 68bd 913e 293d
00000150: d3f1 93bd 59ac d93d a5c6 bbbd 3ae7 343c
00000160: cba0 f13d d3d4 b0bd e1af e13d 6ee9 74bd
00000170: f923 4439 e9fb 0b3e d4e8 133e 9529 8dbd
00000180: 1db5 343e ef85 4ebe 1a7c ea3d 0c69 81ba
00000190: 9080 13bd 51f2 14bd 5f8f f1bd efc8 ca3d
000001a0: 744f b5be ade8 5f3d f097 31be d330 10bd
000001b0: 417f 0fbd 8b5e cc3c 4aef e93d 90db 0a3e
000001c0: c9b3 edbd 7df6 11bd 611d a9be e15b b13d
000001d0: c434 1cbe 0df4 b8bd 3cb7 6f3e 09e7 75be
000001e0: fe68 ffbd a983 213d 24f0 b53d 8c27 b4bc
000001f0: 60bc fcbc 477d c73b 5d04 65be cd97 a03d
00000200: cf30 953d 1ab4 80bd 0904 d1bd fbe9 9fbd
00000210: 0740 54bb 26c6 1cbe 0c43 a43d c352 82bd
00000220: 415f f9bd 8ebc e33c 95de e43d 52bb 853d
00000230: 2956 c23d 443c fa3c af27 563e 5c12 323e
00000240: f059 023c 7284 553d 8210 bb3c 8323 da3d
00000250: e722 243e ed02 2a3c 4714 d03d 3f20 a43d
00000260: e478 3b3d a17d a6bd a43b c9bc b6a2 a53c
00000270: a121 283d 7ffc e83d dc81 663d f5ba 1a3d
00000280: 13e8 0c3d 0e8f 56bd e536 eb3d bd63 463d
00000290: 342b 2e3e 2ef0 f2bd 0348 e33d 618e ddbd
000002a0: 69a6 89bd 9386 063e d445 b9bd 1330 cf3d
000002b0: 595f fe3d 1051 493d 43e5 2e3e eb1d 5cbe
000002c0: 9f30 a73d 7fef 293c 38fb da3d 048a 01be
000002d0: 290c 0c3d a226 09bc 1bdf a6bb 9569 5abd
000002e0: d4d3 233e c058 ebbd ddec 873d 08e3 ef3c
000002f0: 941e 723e ce2d 743e 989a 7fbd ad6c 7a3d
00000300: c38d aa3e a0f8 a4bb 34a9 c1bc d987 553e
00000310: c258 a33d 2e55 9e3e b0ee c03c d099 a73e
00000320: e2f1 18be ca53 f03c 5812 1d3e 4a80 4e3e
00000330: 2428 ba3e 7943 113e cec0 d83e 96b4 313c
00000340: fd04 4c3e 5742 2cbd 17f1 b43e 3666 653e
00000350: d3ee ec3d 9e58 153d 449d ae3c f613 8bbd
00000360: 9aa7 823d 3fea 923e ef1f 893d c975 ec3e
00000370: 35bf 053b be9a 383e f3e0 2f3d dec3 66be
00000380: 9229 a53e 6a60 2fbe 7c5d 813e 7360 49be
00000390: 97be b63e 4178 643e 6a96 d83d f81d be3d
000003a0: 8ca7 333e 4a08 c03e 26a0 cebe 1fe8 943e
000003b0: c241 cfbc d2ef 263e 67f4 5b3d 7344 0c3e
000003c0: 7e59 c0bd 2311 f13d 7d8a 56bd d602 483e
000003d0: 5617 b03d c94e 66bd 64b5 153e 5973 5e3e
000003e0: 32c4 603e 05c9 693e 3f7b 39bc ae8a 29be
000003f0: fbc0 7c3e 5952 993c 1f4f 96bc 46d2 5f3e
0.16663402 -0.019550597 -0.011899658 0.026144836 0.30558243 0.41220778 0.15174226 0.30619597
0.07388259 -0.09580102 0.15808399 0.28569198 0.13897419 -0.043399345 0.45046866 0.04936583
0.27793998 -0.043036968 0.2507989 0.15958044 0.09931093 0.3129568 0.1590097 -0.007849709
0.19272207 0.26676616 0.050341673 0.29890126 0.0043784715 0.13474031 0.17182912 -0.1590406
0.31423232 -0.07070411 0.20053878 -0.17192581 0.31151047 0.36675283 0.055766758 -0.02646505
0.15204939 0.25741357 -0.3981383 0.29564014 0.078250095 0.25025457 0.12697421 0.21614927
-0.009628746 0.1429619 -0.1483284 0.1694357 0.020837383 -0.0069562816 0.18429142 0.1945811
0.31864002 0.39076817 0.19069238 -0.2057501 0.3052165 0.22613828 -0.11255091 0.3266675
-0.24485692 0.033454128 -0.14614251 -0.057568666 -0.017701542 -0.08407339 0.14412786 -0.055964533
0.028873533 -0.22464563 -0.051515453 0.03498797 0.06688515 -0.058621608 0.0801167 -0.123697504
0.22233592 0.027872967 -0.056649137 0.041319434 -0.07223859 0.10628576 -0.09168748 0.011041457
0.11798247 -0.08634343 0.11019874 -0.05979293 0.00018705417 0.13670315 0.14444286 -0.06892697
0.17647214 -0.20168279 0.11449452 -0.0009873225 -0.03601128 -0.036363903 -0.11794924 0.09901606
-0.3541218 0.054665256 -0.17343116 -0.035202812 -0.03503347 0.024947425 0.11422594 0.13560319
-0.11606557 -0.03563546 -0.33030227 0.08660103 -0.15254503 -0.09030924 0.23409742 -0.24013914
-0.124711975 0.0394322 0.08883694 -0.021991514 -0.030851543 0.0060879323 -0.22364946 0.07841454
0.072847 -0.06284352 -0.10205848 -0.078083 -0.0032386796 -0.15309963 0.08020601 -0.06363442
-0.12176371 0.02779987 0.11175267 0.06529869 0.0948909 0.030546315 0.20913576 0.17389816
0.007956013 0.052128263 0.02283502 0.106513046 0.16028939 0.010376674 0.101601176 0.08013963
0.045769587 -0.081294306 -0.024564572 0.020219188 0.041047696 0.11376285 0.056276187 0.037775952
0.03440101 -0.05238252 0.1148508 0.04843496 0.17008668 -0.11862217 0.110977195 -0.10818172
-0.06721193 0.13137273 -0.09046522 0.10116591 0.1242053 0.049149573 0.17079644 -0.21495788
0.081635706 0.010372042 0.106924474 -0.12650305 0.034191284 -0.008371027 -0.005092514 -0.053323347
0.15998775 -0.11491537 0.06636975 0.029283062 0.23644477 0.23845598 -0.06240329 0.061138798
0.3331128 -0.005034521 -0.023640253 0.20852603 0.079759136 0.30924362 0.023551315 0.32734537
-0.14936021 0.029336829 0.15339029 0.20166126 0.3635875 0.14185895 0.42334598 0.010846278
0.19923778 -0.042055454 0.35340187 0.22402272 0.115689896 0.036461465 0.021315224 -0.067909166
0.06379624 0.2869434 0.06695544 0.46183613 0.0020408158 0.1802778 0.042939138 -0.22535655
0.32258278 -0.17126623 0.25266635 -0.19665699 0.35692284 0.22311498 0.10575564 0.0928306
0.17544383 0.37506324 -0.4035656 0.29083344 -0.02529991 0.16302422 0.053699877 0.13697986
-0.09392069 0.11770847 -0.052378166 0.19532332 0.08598201 -0.05622748 0.14619976 0.21723689
0.21949843 0.22830589 -0.011320888 -0.16556808 0.24682991 0.018716024 -0.018348275 0.21857557

lstm.weight_ih_l1 f4 [256, 64]
00000000: 88b6 cb3d 2d94 8cbb c928 e13c 1741 dfbd
00000010: 9772 f13d 4696 ebbd b136 653d 450c 063a
00000020: a6f7 3d3d d674 163c f7c3 21be facc b0bd
00000030: 868f 823d 4308 fabd 75c9 a33d f964 f8bd
00000040: b72e c93d 735d 46bd 4e2b 6bbe 3334 9d3c
00000050: e5fd 1bbd f129 06be fbcd e2bd 59f7 44bb
00000060: 989b 923d 6892 d6bd 41a3 8abd 9e8a 49be
00000070: 6887 91be 4021 afbd 6b6a e0bd bb15 093e
00000080: 4ade b1be fad7 06be 02e5 c6bd 24de 2c3e
00000090: 25f5 0bbd 7966 8c3d e6bf 503e 9e77 353e
000000a0: 687a 2fbe 0a50 bc3d 0502 45bd 9517 91bc
000000b0: 123b e0bd aedd 693e e67b a93e 961a 94ba
000000c0: 56a1 2bbd 9098 08be 94cf 95bd f8ee 40be
000000d0: 40e8 54be dbb3 8fbd 01dd e93c bf0f 343e
000000e0: 59c4 16be 3203 b4be 94c1 40be e5d0 1c3d
000000f0: a40b c9bd 7606 e4bd cae6 3c3e d9ed 333e
00000100: 0e17 cc3e 06e1 9cbe e712 d23c b506 3c3d
00000110: 2471 f13e 7288 e5be 805c ef3c 9424 97be
00000120: 7c84 15be 5e61 81be 37a7 d43e 26f5 d83e
00000130: d525 ce3e 20d8 d23d 987d 1a3f d7b5 113d
00000140: 7dae 753e 4d34 b8bd e756 19be e015 fe3e
00000150: fae7 a53e 226e e5be df6f 28be d6fd 0fbe
00000160: 8ee8 72be 08a3 c5be 5238 1b3e dfe0 34bf
00000170: 710b 73bd f3e6 42bc c6db 783c cf1b 9a3e
00000180: a7a6 90be fd59 6abe cc0f ae3e 5790 8f3d
00000190: fcf3 873e b014 0cbf 4451 e73d 6118 32bb
000001a0: a0d9 69be b19b 9b3e 4c49 29be 6a43 25bf
000001b0: b177 b3be 0a8b e23e de6b bf3e 0f59 55be
000001c0: 3b3e 06be 0fc5 afbe 28ae 9bbe c741 1cbd
000001d0: 17ea 5d3d 076f c3bb ae8e 1ebf 4c86 66bd
000001e0: 9d8e e63e 0868 6ebe 1f38 d33d 75f2 0a3e
000001f0: 29a1 2ebd eba1 073e 2b92 f93d 1849 bd3e
00000200: 6757 bd3e 16dd f8bd c75a f43d a680 9a3d
00000210: 8c90 d73e 5243 a3be f3d8 e23c ddfa 77be
00000220: ca5f cfbd 39a8 93be 70d4 a53e e691 f43e
00000230: 4840 983e da85 9b3d 511d fb3e 5832 1bbe
00000240: 9bc1 173e cccd cf3a 9f04 91be 7b33 bb3e
00000250: 0d08 c73e 8a73 38be 8455 af3c cf16 1b3e
00000260: e5e9 0bbe 355d 3bbe c75f bebd fbb8 d0be
00000270: ef39 343e bae6 55bd edbd dcbc c237 f03e
00000280: 49d6 4dbe 0999 0bbe 7448 613e 27bc 7cbd
00000290: 6c5e ca3d c542 07bf 7248 dcbd 03e0 803e
000002a0: 6d1d 4abe b6cc 8d3e c4e0 fbbc 5fc2 08bf
000002b0: fdee 8bbe 9e0f 843e deb0 ba3c d0d7 2ebe
000002c0: 44af 533e ac9e 9ebe ddf5 dabd 00a6 4fbd
000002d0: eddc 15be 4016 d63d e1b9 a9be eece 4cbe
000002e0: f3ff 473e 362f adbd 0858 1ebe a66f a23d
000002f0: dfcd 97bd 0468 083e 679c 2f3e ba3f d23d
00000300: 3800 7d3e 9606 72be 4b0b 44be b25c 44bd
00000310: 6e1c 463e 754f bebe c950 3ebe 640b 85be
00000320: e9c6 613e 792d aabe 3363 413e 9b9b 113f
00000330: 33a2 d13e ee28 03bd 9e0f d2bd 75b7 fd3b
00000340: 8a31 d43d 6148 1dbe 3606 01be 36f9 ee3e
00000350: c6c9 f83e 8508 1cbf 151b 593d f7a5 ebbd
00000360: 06ce 52be 2f32 7bbe faad ecbc f2ac 80be
00000370: 1ef5 b33c 65f5 8c3e c15c 70bd 269a 033e
00000380: eca7 73be 16f3 5cbe b7ab 0d3e a998 113e
00000390: 8d2f 6a3d ecbd 92be f168 483d 62cc ff3d
000003a0: 029f dabe eb61 4b3e a6eb d13d ca14 89be
000003b0: 8700 f4be cb50 bf3e c36a 7a3e 25a3 ca3d
000003c0: fb61 72bc 70e7 d8be fdde 81be 16b4 5cbe
000003d0: 6946 70be 9c9b 923d 4240 8fbe 2460 fc3d
000003e0: 1ee0 6a3e ac43 31be a948 abbd 2a5b 433d
000003f0: a581 91bd 2c7f 70be 0056 243e 3df9 273d
0.099469244 -0.004290125 0.027485268 -0.10901087 0.117894344 -0.11503272 0.05596036 0.00051135226
0.046378754 0.009183129 -0.15797411 -0.08632846 0.06375031 -0.12208607 0.07997409 -0.12128634
0.09823363 -0.048428964 -0.22965738 0.01918993 -0.03808393 -0.13101937 -0.11074444 -0.0030054657
0.071585834 -0.104771435 -0.067694195 -0.19681785 -0.2842362 -0.08551264 -0.109577976 0.13387196
-0.34739906 -0.13168326 -0.097116485 0.16881615 -0.034169335 0.068554826 0.20385703 0.17721412
-0.17136538 0.09194954 -0.04809763 -0.01771144 -0.10948767 0.2283847 0.3310234 -0.0011299427
-0.04190191 -0.13339448 -0.07314983 -0.1884116 -0.20791721 -0.070167266 0.028547766 0.17584132
-0.14723338 -0.35158688 -0.18823844 0.038285155 -0.098166734 -0.11134045 0.18447414 0.175712
0.3986134 -0.3064043 0.025643779 0.045904834 0.47156632 -0.44830662 0.029218912 -0.29520094
-0.1460132 -0.25269598 0.41533825 0.42374533 0.4026324 0.10295129 0.6034789 0.035573807
0.23992343 -0.089943506 -0.14974557 0.49626064 0.32403547 -0.44810587 -0.16448925 -0.14061674
-0.23721525 -0.38600945 0.15158203 -0.70655626 -0.059337083 -0.011895883 0.015189117 0.3009934
-0.28252146 -0.2288589 0.33996427 0.070099525 0.26553333 -0.54719067 0.11294797 -0.0027175175
-0.22836924 0.3039222 -0.16531867 -0.6455599 -0.35052255 0.44246703 0.37386984 -0.20834754
-0.13109677 -0.3433003 -0.30406308 -0.038148668 0.054178324 -0.005964163 -0.6193646 -0.05628042
0.4503068 -0.23281872 0.103134386 0.13569053 -0.042634163 0.1324536 0.121860825 0.3696983
0.36980745 -0.12151544 0.11931377 0.07544069 0.42102468 -0.318873 0.02769134 -0.2421679
-0.10125692 -0.2883928 0.3238864 0.47767562 0.29736543 0.075938895 0.49045804 -0.15155923
0.14819948 0.0015854179 -0.28323838 0.36562714 0.3887333 -0.18012825 0.021403082 0.1514542
-0.13663442 -0.18297274 -0.09295612 -0.4076613 0.17600225 -0.05222199 -0.026946032 0.4691754
-0.20101275 -0.13632597 0.22000295 -0.061702874 0.09881291 -0.5283626 -0.10756005 0.25170907
-0.19737788 0.27695245 -0.030746825 -0.53421587 -0.2733077 0.25793165 0.022789415 -0.17074513
0.20672327 -0.30980432 -0.10691426 -0.05069542 -0.14635058 0.104534626 -0.33149627 -0.20000812
0.1953123 -0.084562704 -0.15463269 0.079314515 -0.07412314 0.13320929 0.17149507 0.10266061
0.24707115 -0.23635325 -0.19144933 -0.047939964 0.19346783 -0.37169996 -0.18585505 -0.25985253
0.22048534 -0.33237818 0.18885498 0.5687806 0.4094406 -0.032021455 -0.10256885 0.007742817
0.10361011 -0.15359642 -0.12600026 0.46674508 0.4859144 -0.609505 0.053004343 -0.11506265
-0.20586404 -0.24530862 -0.028891552 -0.25131947 0.021967467 0.2753097 -0.058682207 0.12851772
-0.23794526 -0.21577105 0.13835035 0.14218391 0.057174254 -0.28660524 0.048928205 0.12490155
-0.42699438 0.19861571 0.102500245 -0.26773673 -0.47656652 0.37366328 0.24454789 0.098943986
-0.014793868 -0.42364073 -0.2536544 -0.21553072 -0.2346436 0.071585864 -0.27978712 0.12323025
0.22937056 -0.17310971 -0.08363468 0.047694363 -0.07104806 -0.23486012 0.16048431 0.041009177

lstm.weight_hh_l1 f4 [256, 64]
00000000: 58d1 9b3e a201 56be cab2 b63e 5b02 453e
00000010: 07bd 32be 6fbf ae3d 15ce cf3d a07b d9be
00000020: 614e 083e 1947 06be 44d4 8e3e 9869 85be
00000030: 2ba9 9cbe 1c05 b63b 24be 313e 030d a9be
00000040: f021 72be 7826 683e c773 afbd be99 423e
00000050: ba08 4cbe b8db 9fbe 855e 413e 2f71 cbbd
00000060: 8d28 4d3e dc5d bd3c 186b 063e 204c 213e
00000070: 3984 233d 503d 253d 6372 ed3d 6c91 fc3c
00000080: c213 98be a87c 753e 0828 7dbe 9c5a 0bbe
00000090: a2e3 3b3e ffe0 393e 5d59 fb3c 6ba6 753e
000000a0: 35b0 4fbe 0e85 883e a71d 123d db96 b03d
000000b0: 9a1e 10bd dc9f 9abe b8ed 903d 3e37 cfbe
000000c0: efb7 19be 18ad 4ebe df32 283e 788e a0be
000000d0: 3c76 e1bc 3486 653c 826e a23e 9af7 acbb
000000e0: 7b6d 33be 359f b03e 2b7d 133e a7a2 7fbc
000000f0: b812 9dbc c5b6 96bd 0bc8 0f3e 8251 f23e
00000100: c805 04be 4e3c 10bf 29af 053f afc9 3c3e
00000110: 32bf 203e 1e71 f4be 9488 4fbe 9f50 eabd
00000120: 62c9 9bbd 750c 48be ead1 943e f64f e3bd
00000130: 53d8 94bc d7ab a13e 88c5 6dbe b600 33be
00000140: 8f91 47be 70a3 a13e 5707 5bbe 37c7 a33e
00000150: 2cad 0ebf 7c3a 2abe 8ec5 063f 4469 963e
00000160: d001 13bd f3e4 943e 8656 863e 3d01 d1bd
00000170: 9ba2 c3be c27b c7bd 89b6 c13d d446 ea3e
00000180: e4c8 ca3d 2389 033e 92ac c8be b203 093f
00000190: e717 ae3d 102d 303e 3245 6dbe 1465 b13e
000001a0: 5583 c9be 21aa 363e 7e7b 8d3e d9e9 653e
000001b0: 635e a0be 887a 42be f4fc c0bd f41c 3abe
000001c0: 9138 85be 0acf d8be 7ba5 d1bd d79f 9fbe
000001d0: f976 b8be 959f 13bd da2b ab3e 652f 2c3d
000001e0: dad1 43be f1a3 893e bf38 39be 7ba7 48be
000001f0: ea07 46be 6797 afbe 79f5 873e f5c8 303e
00000200: 23e9 39be 53df 4bbe 401f 343e c870 483e
00000210: 22a3 4c3e b6e4 ccbe 9cf2 6bbe 14a7 6c3e
00000220: 391d 4fbe c10a babd a159 693e 3472 563d
00000230: 5d29 efbd a720 253e 6aaf 3ebd 2ec8 82be
00000240: b2c1 8fbe 603a a73d 7164 0cbe 6204 9f3e
00000250: 9494 a8be 3aae 19be f4ca b53e 2b84 0cbd
00000260: 0d36 5e3e 5ba2 953e 84b0 b13e b179 cfbd
00000270: 6d69 aabe f37c 1d3e 53a6 e1bd 206e 413e
00000280: a7e2 6dbe f8b2 8bbc 4f27 c2be 4b06 d33e
00000290: f4fb 30bb 2ab2 b13e 3dd6 62be e912 843e
000002a0: ff50 9ebe 1db8 9f3d 7e03 493e 4ec3 603d
000002b0: 80c1 30be 6fb5 ecbc a81f 52be f3f2 9fbe
000002c0: 67c1 a4be ee75 41be fd61 4b3e 57d4 8ebe
000002d0: 7a12 7cbe 484c 0abe a001 723d 6041 8e3e
000002e0: 9875 45be 779c ed3d 76c9 32be 16ab 393d
000002f0: c5fe 5abe 9016 11be cf51 dc3e 2629 6b3e
00000300: 0bd8 b53d 13f1 01be c9ca 593d 7126 7c3e
00000310: d808 07be 05f4 c4bc 7f4e 6fbd 758d e33c
00000320: bf32 27be 57dc e6bb eec6 513e 3628 2abc
00000330: ba55 e3bc 3a9b c1bb a69f 40be 1d58 30be
00000340: 88a5 f2bd 2831 9d3e 8b24 39be c7fa 863e
00000350: 9887 a3bd da20 64bd 335f e93d 7e49 03be
00000360: 5151 093e a275 b73e 9d06 7f3e 0ec2 28bd
00000370: e576 e5be fcb6 00bd 641b 57be 54d0 963e
00000380: 98f4 9bbe daa0 003e c943 e5bd 4ca2 8d3e
00000390: 3354 5fbd c6db d83d 541a 813d 6889 423e
000003a0: baa1 10bd 7804 363e 963a 58be 6c04 b53d
000003b0: cf7b 4abe a75f 03be 1577 8cbe f554 5dbd
000003c0: 83b3 02be b761 2cbe 9d5f 093e 5081 69be
000003d0: 0c05 b6bd d3c3 6dbe cc05 c83e 8210 f73d
000003e0: fa84 20be e081 50bd 4d47 89be 9647 6abe
000003f0: 0e22 babd d6cb 2fbe 30dc f8bb 82af 4c3e
0.30433154 -0.2089906 0.3568328 0.1923918 -0.1745492 0.08532607 0.10146729 -0.4247713
0.13311149 -0.13113059 0.2789632 -0.26057124 -0.30597815 0.0055548083 0.17357689 -0.3301774
-0.23645759 0.22670925 -0.08567005 0.1900396 -0.19925204 -0.3122232 0.18883713 -0.099336974
0.20035 0.023116045 0.1312679 0.15751696 0.03992102 0.040341675 0.11594083 0.030831061
-0.29702574 0.23973334 -0.24722302 -0.13608783 0.18348554 0.18152235 0.03068226 0.23989265
-0.20282061 0.26664013 0.03567281 0.086225234 -0.035185434 -0.30200088 0.07076591 -0.40471834
-0.15011571 -0.20183218 0.16425656 -0.31358695 -0.027522199 0.014009047 0.31724936 -0.00527854
-0.17522232 0.34496465 0.14403217 -0.015602744 -0.019173965 -0.07359079 0.14041154 0.4732781
-0.1289283 -0.5634202 0.522204 0.18436311 0.15697935 -0.47742552 -0.20266944 -0.114411585
-0.0760677 -0.19536002 0.29066402 -0.11099236 -0.018169558 0.31576416 -0.23219883 -0.1748074
-0.1948912 0.31570005 -0.21389519 0.31987926 -0.5573299 -0.16623873 0.52645195 0.29377186
-0.0358904 0.29080924 0.26237887 -0.10205314 -0.38209996 -0.09740402 0.09458644 0.45757163
0.09901598 0.12845282 -0.3919416 0.53521264 0.08500653 0.1720469 -0.23170927 0.3464743
-0.3935801 0.17838337 0.2763328 0.22452487 -0.3132201 -0.18992054 -0.09423247 -0.18175107
-0.2601972 -0.42345458 -0.10236641 -0.31176636 -0.3602827 -0.03604086 0.33431894 0.042037386
-0.19123021 0.2688289 -0.18088053 -0.19595139 -0.19338956 -0.34295198 0.26554468 0.17264159
-0.18155341 -0.1990941 0.17590046 0.19574273 0.19984105 -0.40018243 -0.23041767 0.2311061
-0.20225991 -0.090840824 0.22788097 0.052355006 -0.11677811 0.16125737 -0.046554007 -0.2554335
-0.28077465 0.08165431 -0.1371019 0.3105803 -0.32925856 -0.15007868 0.35506403 -0.034305733
0.21700306 0.2922543 0.34704983 -0.10130633 -0.33283558 0.15379696 -0.11018052 0.18889666
-0.23230992 -0.017053112 -0.37920615 0.4121574 -0.0027005645 0.3470624 -0.22152038 0.25795677
-0.3092117 0.07798789 0.19630238 0.054873757 -0.17261314 -0.028895108 -0.20519888 -0.31240043
-0.32178804 -0.18892643 0.19861598 -0.27896377 -0.24616423 -0.13505661 0.05908358 0.27784252
-0.1928314 0.11602109 -0.17459664 0.045329176 -0.2138625 -0.14168763 0.43031165 0.22964916
0.088790976 -0.12689619 0.053171907 0.24624039 -0.13186967 -0.024042139 -0.05842447 0.027777413
-0.16327952 -0.0070453095 0.20486042 -0.010385564 -0.027750839 -0.005908397 -0.18810901 -0.17221113
-0.11847979 0.30701566 -0.18080346 0.26363203 -0.07984847 -0.055695392 0.11395111 -0.12821004
0.13409926 0.35831934 0.24904867 -0.04120069 -0.44817272 -0.031424507 -0.21006542 0.29455817
-0.30460048 0.1256136 -0.111945696 0.27662885 -0.054523658 0.105887935 0.0630385 0.18997729
-0.035310484 0.17775142 -0.21116099 0.08838734 -0.19773792 -0.12829457 -0.27434602 -0.0540361
-0.12763791 -0.1683415 0.1341538 -0.22803235 -0.08887681 -0.23219232 0.39066923 0.120636955
-0.15675727 -0.05090511 -0.2681221 -0.2287887 -0.09088527 -0.17167601 -0.007594608 0.19988826

lstm.bias_ih_l1 f4 [256]
00000000: f41b adbd 10b4 493e 0575 3a3d e742 983d
00000010: 99c7 903d 932a 94bd 79df 513b 4c03 d33d
00000020: c605 003e a7b4 3f3e c247 0fbe 7cca ed3d
00000030: 611d cbbc d26a f9bd 7013 f83d 4186 193e
00000040: 8a79 28b9 c6df 503d 0c89 1e3c db8a 0a3e
00000050: 4718 6d3e 0106 2ebd 74e4 703c fc73 9d3e
00000060: cb84 5a3e 87a9 27be bc87 62be fa7b b0bc
00000070: 451a 82bb 8909 34bd 6e27 1bbd e6e4 353c
00000080: fa14 80be fc59 3b3d 89fc 8abd 9657 18be
00000090: b141 16bd acbb 363e 844d 353e 7090 c1bd
000000a0: 7ecb 5e3e f734 50bb bf58 993d 622c 7fbe
000000b0: ec06 d5bd a3c8 6a3e e808 adbd 2dc5 103d
000000c0: 1aa7 8a38 695b c3bd 5a9f 0bbe 4eeb 73bc
000000d0: e955 e83d e500 903d 1836 a23e 590f b63d
000000e0: 8906 48bd 870f e03c bc5d de3d 0d6b 383e
000000f0: 8dbf b4bc 2db4 693d d0a4 e43c 3788 45bc
00000100: 7449 86bd 2001 22be 6911 14be 2e5e bebd
00000110: 8eb6 13be d393 323a ba2a eabc dba9 ec3d
00000120: df88 da3d bb63 02be 28c9 923d 0e29 aabd
00000130: b5de 4cbe bed5 c8bd 321d fc3d 116e 20be
00000140: 76df a5bd 0023 0d3e 9189 19be 654a 173d
00000150: 6177 123e 1abd 81be fe64 ffbd a65f 3d3e
00000160: 06a2 90be 8134 0b3d 1371 3dbe e6cc 8abd
00000170: bc97 59be c991 6abd 584f 25bd 9da6 173e
00000180: db43 a1bd e9cc 2bbe ae1c 7ebd a6b8 e53c
00000190: f482 70bd 30b4 73be 1f17 58bd e3d2 4fbd
000001a0: 5645 103e 33ed 013e 8fc6 c13d fc20 02be
000001b0: dd62 37bd a7d2 44be 1cae 6fbe 820c 44bd
000001c0: 987f 003e 4987 cc3b 61cd 8f3d e01d bdbc
000001d0: ea0f f13d a416 e1bd e7ef 123e 5c75 ce3d
000001e0: 37fb 7fbe b6ab 14be 5778 1b3d e0e5 143e
000001f0: 735a a73d 00cb 273c 87b0 0abe a594 6bbe
00000200: 32f9 8dbc 7e9e 433d d9b5 883d 224f aabd
00000210: 944d 8e3d 98e8 253e bce4 aabc a758 6f3b
00000220: 2d59 a9bc 5a3c 713e c92e 163d c0c9 92bd
00000230: 6677 d7bd d26a 233d 787b 3ebd f0fe eabd
00000240: 7108 8d3d 187f c8bd 14b8 8ebd a094 bdbd
00000250: 676b 043e fb5f ddbd 6b2f 28be d7eb c6bc
00000260: 1753 e9bc 4735 a33d 886b 9dbd 1435 f83d
00000270: 169b 053e c610 bdbc 1648 e73d fed3 b8bd
00000280: c8ce 3e3d 1d9c 23be 6866 6cbd fd65 333d
00000290: ab02 52be 9239 8ebd c480 aa3d 3233 803d
000002a0: 7fc8 263e 30f3 953d 6ae6 e03d 18f2 84bd
000002b0: e66b d53d 4c0d 2a3c 225e 8b3d 873e c6bb
000002c0: 5ca3 213c 3964 b13d 0f4d 34be d465 83bd
000002d0: 1f81 463d f913 123e 4620 203c 4fe0 c53d
000002e0: a73e 9f3d 2e73 b8bd fdd6 203c a81e 9cbd
000002f0: a40f dbbc 9e6d 49bd 9030 28bc ad8d a33c
00000300: d590 35be 15f5 e33d 9154 5cbc f73a 493d
00000310: 74cd e3bd 83a8 83bd 6955 3ebe 743a 8e3e
00000320: c5ed 11bd fbe5 843e 7754 22be 9207 783d
00000330: af83 77be 1cdc 7bbd f818 59bc fe00 c33d
00000340: 50c4 e1bd 17b3 1b3d a08a 19bd 22aa 8b3d
00000350: d456 863e 4406 2dbe 9b11 113e 925c cd3c
00000360: 7dfe 253d 3536 8bbe 7c91 a6be e4ce e5bc
00000370: e282 b73c b403 c33a 5fa5 1bbc d882 aebd
00000380: 7ebf 80be dcfc 023d b6c3 893c 117a d9be
00000390: 2b54 54bd 366d 6cbd 1fd9 aabd 4650 b4be
000003a0: 8999 073e e05d 4bbc 308a d93d 6942 b5bd
000003b0: 4405 63be 2ad4 ac3c ccff 33be ea4e 8ebd
000003c0: 924d bbbd c470 673d e218 05bd 96b3 093e
000003d0: da13 cb3d a9b3 1ebe aec6 f03e 17bd b2bd
000003e0: b41d 9fbd f5ba 5a3d 13bf 0bbe fa48 723e
000003f0: ccb9 913d c6c3 27be 34db 5c3d a2e8 c6bd
-0.08452597 0.19697595 0.045521755 0.074346356 0.0706932 -0.07234683 0.003202407 0.10303363
0.12502202 0.18721257 -0.13992217 0.116108865 -0.024794282 -0.121785775 0.121130824 0.1499262
-0.00016067005 0.050994657 0.009676229 0.13529532 0.23153792 -0.042486195 0.014702905 0.30752552
0.21339719 -0.16373263 -0.22122091 -0.021543492 -0.0039704167 -0.043954406 -0.0378794 0.011101937
-0.25016004 0.045740113 -0.067864485 -0.14877161 -0.036683742 0.17845029 0.17705351 -0.094513774
0.21757314 -0.003176985 0.0748763 -0.24919274 -0.10401711 0.229281 -0.08448964 0.03534429
6.611478e-05 -0.095389195 -0.13635007 -0.014887644 0.11344511 0.070314206 0.31681895 0.08889646
-0.048834357 0.027351154 0.10857722 0.18009587 -0.022063995 0.057056595 0.02791062 -0.012056402
-0.06556979 -0.15820742 -0.14459766 -0.09295307 -0.14425108 0.00068121887 -0.028584827 0.11555835
0.10670637 -0.12733357 0.07167274 -0.08308612 -0.20006831 -0.09806393 0.12310256 -0.15666987
-0.080992624 0.13782883 -0.14993884 0.036936183 0.14303352 -0.25339586 -0.124704346 0.18493518
-0.28248614 0.03398562 -0.18500166 -0.067773625 -0.21249288 -0.057267938 -0.04035887 0.14809652
-0.078742705 -0.16777386 -0.06203907 0.028042149 -0.058718637 -0.23799205 -0.052756425 -0.050738227
0.1408895 0.1268814 0.094617 -0.12707895 -0.044772018 -0.19220982 -0.23406261 -0.04786349
0.12548673 0.006241713 0.07021595 -0.023085535 0.117706135 -0.109906465 0.14349328 0.10080978
-0.24998175 -0.14518628 0.037956562 0.14540815 0.08171549 0.01024127 -0.13543902 -0.23005922
-0.01733074 0.04775857 0.0667531 -0.08315875 0.069483906 0.16202009 -0.020861022 0.0036521347
-0.020672405 0.23558179 0.03666571 -0.07167387 -0.1052082 0.039896794 -0.046504468 -0.11474407
0.06886376 -0.09789866 -0.06968704 -0.092568636 0.12931596 -0.108093224 -0.16424339 -0.02428238
-0.028482003 0.07969146 -0.076865256 0.12119499 0.13047442 -0.023079287 0.11293046 -0.09024809
0.04658392 -0.15977521 -0.05771485 0.043798435 -0.2050883 -0.069445744 0.08325341 0.06259765
0.1628742 0.07321775 0.10981448 -0.06491488 0.104209706 0.010379147 0.06805064 -0.0060499343
0.009865608 0.08661694 -0.1760752 -0.064159065 0.048462983 0.14265431 0.00977332 0.09661924
0.07775622 -0.09006344 0.009816882 -0.07623035 -0.026740856 -0.049176805 -0.010265484 0.019965017
-0.1773103 0.1113073 -0.013447897 0.0491285 -0.111231714 -0.064286254 -0.18587269 0.2777897
-0.035627145 0.2595671 -0.15852533 0.060554095 -0.24171327 -0.06148921 -0.013250582 0.095216736
-0.11023772 0.03801259 -0.03748572 0.0681956 0.2623812 -0.16896921 0.14166872 0.025068555
0.040525902 -0.27189794 -0.3253287 -0.028052755 0.022401277 0.0014878423 -0.009499877 -0.0852105
-0.25146097 0.031979427 0.016816955 -0.42475942 -0.05183808 -0.05772134 -0.08342194 -0.35217494
0.13242163 -0.012412518 0.1062206 -0.08850557 -0.22169977 0.021097261 -0.17578048 -0.069486454
-0.09145655 0.056504026 -0.032494433 0.13447413 0.09915896 -0.15498222 0.4702658 -0.08727472
-0.07769337 0.053400952 -0.13647108 0.23660651 0.07115516 -0.16383275 0.053919986 -0.0971234

lstm.bias_hh_l1 f4 [256]
00000000: 749a a4bd a5fd 623e 83ea 0b3e 7e6b b23d
00000010: 2513 fb3d 9b2d f2ba cb86 db3d a877 a73e
00000020: 646e 1a3e 0d9a de3d 6926 cb3c a734 253c
00000030: 3786 0fbe 93fc 48bc 1771 0b3e 2b88 afbc
00000040: e041 693d c073 023d 8366 5b3d 57e4 4f3c
00000050: e368 973e 0231 f63d b008 693e a8e9 db3d
00000060: b3f9 d63d a7cc 98bd aafa c9bd aff6 c3bd
00000070: e44e efbd 6eca f23d f6df 9b3d 2508 db3d
00000080: fe77 cdbd 01bd f63d 0df0 953d e7f6 1abe
00000090: 000b 143d d28e 603d 95be 2dbd aad1 82be
000000a0: 14f1 563e 95fc 08be fffb 3e3c e53a 81be
000000b0: 6e97 e1bd 7b3b 5c3c 964b 2ebe b08d e23b
000000c0: 5e93 8f3d 9afe 033d a8d7 c1bb 49fd 673d
000000d0: 5e44 8d3a 383e 42bd c6f4 a03e 5808 04be
000000e0: df16 e2bd 5a55 3d3d 12fb 833d 20f9 ea3d
000000f0: 1871 e9bc 4a40 f5bd 6bc7 63bd 6320 3dbe
00000100: 0b5e bd3d 8813 8cbe f340 babd e320 7ebe
00000110: e0d2 2fbe 8dc6 cebc 2708 19be a9fc 91bc
00000120: 820f 19bd 8519 85ba f819 eb3d e236 72be
00000130: 3c11 6abe 4670 c3bd 6553 c23d 979f 01be
00000140: 7dbc 47be 3944 653d 1b5c d6bd d5fa 48be
00000150: 6738 fa3d c01c 60be 760f d7bd 034a 523e
00000160: 2a1a 76be ceb7 14be 03d7 3ebe 6a88 edbc
00000170: 27f9 c6bd f137 803c ca23 2dbe 99c5 183e
00000180: f362 99bd d99a 37be 2f4c 4fbe 262a f53d
00000190: 7291 b9bd a895 6ebe 112b 903d b17c 4cbd
000001a0: 52d1 8b3d b60c 753d a26e 02be 024c 3bbe
000001b0: 83ae 223d abe3 96bd 6c8e 79be c32e 25be
000001c0: 130a 35bc 265b 38bd 303d fdbb 2017 2dbe
000001d0: 7810 813e 639d 0dbe 234d 9f3d 00a3 2bbd
000001e0: b6ed 4fbd b5a7 b8bd d809 313b b247 4c3e
000001f0: 75e3 70bb e5c5 adbc dd22 2cbe 137b 02bd
00000200: 330f 253e af12 463e 5140 a7bd 3992 cbbd
00000210: 6dce d93c 6828 823d 1595 31bd 6cc8 5abd
00000220: bac7 b6bd 6a22 273e 47e5 0ebe d6ac 733d
00000230: 2a6d 97bd 9dd1 f9bd e566 07bd 500e e33c
00000240: b268 f43d 5d29 b03c 29f2 ff3d 9001 a8bd
00000250: 548e 21bc a618 96bd 1065 02be 2f75 57bd
00000260: 03fd 72bd dbb4 a83b 94b0 a93d ae65 023d
00000270: b845 babc 571b b13d 22df f83d ff57 33be
00000280: 95e8 ccbd 4b62 06be 1812 273e 58e8 a23c
00000290: 6c8a 65bd 2e4b 69bd f0ff 313e bd5d 123c
000002a0: caa4 153e a7d0 68bd d662 be3d 2471 f5bb
000002b0: ee65 c2bd fded 803d d56d 25bd b227 08bd
000002c0: 076f 203e 14ef 823c f8c5 17bd 515e 8cbc
000002d0: feff ac3d e80f f63d 2578 9b3d a4fc 403d
000002e0: 35a2 a33d 4ec1 6a3d 795a 8b3d 031e 433c
000002f0: 02a3 bb3b 1297 2fbc f246 463d 1f2d d73d
00000300: cbd6 0bbe 7b71 ba3d ab3c c13d 0bbe 043e
00000310: 297e 34be 3465 5fbe ae76 163c 35db ad3e
00000320: a4b1 f23d 81f6 163e ba00 6cbd ed91 1a3d
00000330: f982 68be 1000 cdbd 9638 48bd 27d7 3fbc
00000340: 94d4 963d 455d 08bd 4298 68bc a0b9 ddbd
00000350: 060e 053e 98dc 31be c1d2 3f3d 404b 65bd
00000360: ea9d aa3d 43ed 6dbe ca41 0cbe 02bf a9bd
00000370: c6f9 5fbd b472 b9bd 5896 06be 04a4 bfbd
00000380: 89b7 63be 676d 3ebd a8e2 d33b 4b76 a5be
00000390: eec3 46bd ed94 fabc e951 ba3d 24a8 85be
000003a0: 4446 ca3d 7300 19be 3382 bf3d 79b1 85be
000003b0: fb94 c7bd b11c 643d 97f1 77be 57bf 02be
000003c0: 5420 c03d 9c9d 3bbd 97c8 dabd c83e 203e
000003d0: f567 153d a349 26be cc3d d03e 23db 8dbd
000003e0: 2221 90bd 291e 8cbd 6d2e 19be dac7 a93e
000003f0: 3348 b93c c280 1dbe e9ab 3b3d bb39 b1bd
-0.08037272 0.2216707 0.13663678 0.08711909 0.12259511 -0.0018476726 0.10719069 0.32708478
0.15081173 0.108692266 0.024798589 0.010083354 -0.14016043 -0.01226725 0.13617359 -0.021427235
0.05694759 0.03184867 0.05356456 0.012688718 0.2957221 0.12021066 0.2275722 0.10737926
0.10496845 -0.07460909 -0.098622635 -0.095685355 -0.11684969 0.11855017 0.076110765 0.10694913
-0.10032652 0.120477684 0.07321177 -0.15133248 0.036143303 0.054823704 -0.04241808 -0.25550586
0.20990402 -0.13377602 0.01165676 -0.25240245 -0.11015211 0.013441916 -0.17021021 0.006913863
0.0701053 0.03222523 -0.005915601 0.056638036 0.0010777821 -0.047422618 0.31436747 -0.12893808
-0.110395186 0.046223976 0.06444372 0.11473298 -0.02849631 -0.11975153 -0.0556101 -0.18469386
0.09246453 -0.2735865 -0.09094419 -0.24817233 -0.17170286 -0.02524116 -0.14944516 -0.017820673
-0.037368305 -0.00101547 0.114795625 -0.23653749 -0.22858137 -0.09542899 0.094885625 -0.12658535
-0.19505496 0.055973265 -0.104667865 -0.19626935 0.12217789 -0.21885967 -0.10500996 0.20536046
-0.24033418 -0.14523241 -0.18636708 -0.028995711 -0.09715491 0.015651675 -0.16908184 0.14919128
-0.07489576 -0.17930163 -0.20243905 0.1197093 -0.090609446 -0.23299277 0.07039464 -0.049923602
0.06827034 0.059826575 -0.12737516 -0.18290713 0.03971721 -0.07367643 -0.24370736 -0.1613112
-0.011049765 -0.0450088 -0.0077282414 -0.16903353 0.25207877 -0.1382957 0.077783845 -0.041903496
-0.05076381 -0.090163626 0.0027013924 0.19949225 -0.0036756669 -0.021212528 -0.16810174 -0.031855654
0.1611908 0.19343065 -0.08166564 -0.09939999 0.02658769 0.06355363 -0.043355066 -0.053413793
-0.089248136 0.16321722 -0.1395465 0.059491 -0.07393868 -0.12198184 -0.033057112 0.027716786
0.119340315 0.021504099 0.1249736 -0.08203423 -0.009860594 -0.0732892 -0.12733865 -0.05260199
-0.059323322 0.005148513 0.08285633 0.03183525 -0.022738323 0.08647793 0.12151934 -0.17514037
-0.10005299 -0.13123433 0.16315496 0.01988618 -0.056040213 -0.056956463 0.17382789 0.008933482
0.14613643 -0.05683961 0.09296195 -0.007490294 -0.09492098 0.06295393 -0.040387947 -0.03324098
0.15667354 0.015983142 -0.037054032 -0.017134817 0.08447264 0.120147526 0.07591275 0.047115937
0.07989923 0.057313256 0.06804366 0.011909011 0.005726219 -0.01071717 0.048407502 0.10506653
-0.13656156 0.09103676 0.094353996 0.1296312 -0.17626251 -0.2181595 0.009183569 0.33956304
0.118502885 0.14742471 -0.05761788 0.037736822 -0.22706212 -0.100097775 -0.04888209 -0.011709011
0.07364765 -0.033292074 -0.014196457 -0.10826421 0.12993631 -0.17369306 0.04683185 -0.055979967
0.08330901 -0.2323504 -0.13696972 -0.08288385 -0.054681562 -0.09055081 -0.13143289 -0.093574554
-0.22237982 -0.046491053 0.0064662285 -0.32316813 -0.048526697 -0.030588591 0.09097654 -0.26104844
0.09876683 -0.14941578 0.093510054 -0.26111963 -0.09745213 0.055691425 -0.24213253 -0.12768303
0.09381166 -0.045804605 -0.10682791 0.15648949 0.036476094 -0.16239028 0.40672147 -0.06926563
-0.070375696 -0.0684169 -0.14959116 0.33160287 0.022617435 -0.15381148 0.045818243 -0.08653589
